…
            if res_cur['val_auc'] > res_best['val_auc']:
                res_best = res_cur
                print(res_best)
    print('Done! Best Results:')
    print(res_best)
    print_list = ['test_auc', 'test_f1', 'test_macro_f1', 'test_micro_f1']
    for i in print_list:
        print(i, res_best[i], end=' ')



def main():
    print(" ".join(sys.argv))
    this_fpath = os.path.abspath(__file__)
    t = subprocess.run(f'cat {this_fpath}', shell=True, stdout=subprocess.PIPE)
    print(str(t.stdout, 'utf-8'))
    print('=' * 20)
    run()

if __name__ == "__main__":
    main()
====================
SBGNN(
  (features_a): Embedding(5858, 32)
  (features_b): Embedding(5858, 32)
  (layers): ModuleList(
    (0-1): 2 x SBGNNLayer(
      (agg_a_from_b_pos): AttentionAggregator(
        (out_mlp_layer): Sequential(
          (0): Linear(in_features=32, out_features=32, bias=True)
        )
      )
      (agg_a_from_b_neg): AttentionAggregator(
        (out_mlp_layer): Sequential(
          (0): Linear(in_features=32, out_features=32, bias=True)
        )
      )
      (agg_a_from_a_pos): AttentionAggregator(
        (out_mlp_layer): Sequential(
          (0): Linear(in_features=32, out_features=32, bias=True)
        )
      )
      (agg_a_from_a_neg): AttentionAggregator(
        (out_mlp_layer): Sequential(
          (0): Linear(in_features=32, out_features=32, bias=True)
        )
      )
      (agg_b_from_a_pos): AttentionAggregator(
        (out_mlp_layer): Sequential(
          (0): Linear(in_features=32, out_features=32, bias=True)
        )
      )
      (agg_b_from_a_neg): AttentionAggregator(
        (out_mlp_layer): Sequential(
          (0): Linear(in_features=32, out_features=32, bias=True)
        )
      )
      (agg_b_from_b_pos): AttentionAggregator(
        (out_mlp_layer): Sequential(
          (0): Linear(in_features=32, out_features=32, bias=True)
        )
      )
      (agg_b_from_b_neg): AttentionAggregator(
        (out_mlp_layer): Sequential(
          (0): Linear(in_features=32, out_features=32, bias=True)
        )
      )
      (update_func): Sequential(
        (0): Dropout(p=0.5, inplace=False)
        (1): Linear(in_features=160, out_features=64, bias=True)
        (2): PReLU(num_parameters=1)
        (3): Linear(in_features=64, out_features=32, bias=True)
      )
    )
  )
)
  0%|          | 0/2001 [00:00<?, ?it/s]../aten/src/ATen/native/cuda/IndexKernel.cu:92: operator(): block: [1517,0,0], thread: [32,0,0] Assertion `-sizes[i] <= index && index < sizes[i] && "index out of bounds"` failed.
../aten/src/ATen/native/cuda/IndexKernel.cu:92: operator(): block: [1517,0,0], thread: [33,0,0] Assertion `-sizes[i] <= index && index < sizes[i] && "index out of bounds"` failed.
…
