…
            if res_cur['val_auc'] > res_best['val_auc']:
                res_best = res_cur
                print(res_best)
    print('Done! Best Results:')
    print(res_best)
    print_list = ['test_auc', 'test_f1', 'test_macro_f1', 'test_micro_f1']
    for i in print_list:
        print(i, res_best[i], end=' ')



def main():
    print(" ".join(sys.argv))
    this_fpath = os.path.abspath(__file__)
    t = subprocess.run(f'cat {this_fpath}', shell=True, stdout=subprocess.PIPE)
    print(str(t.stdout, 'utf-8'))
    print('=' * 20)
    run()

if __name__ == "__main__":
    main()

====================
SBGNN(
  (features_a): Embedding(7919, 32)
  (features_b): Embedding(1973, 32)
  (layers): ModuleList(
    (0-1): 2 x SBGNNLayer(
      (agg_a_from_b_pos): AttentionAggregator(
        (out_mlp_layer): Sequential(
          (0): Linear(in_features=32, out_features=32, bias=True)
        )
      )
      (agg_a_from_b_neg): AttentionAggregator(
        (out_mlp_layer): Sequential(
          (0): Linear(in_features=32, out_features=32, bias=True)
        )
      )
      (agg_a_from_a_pos): AttentionAggregator(
        (out_mlp_layer): Sequential(
          (0): Linear(in_features=32, out_features=32, bias=True)
        )
      )
      (agg_a_from_a_neg): AttentionAggregator(
        (out_mlp_layer): Sequential(
          (0): Linear(in_features=32, out_features=32, bias=True)
        )
      )
      (agg_b_from_a_pos): AttentionAggregator(
        (out_mlp_layer): Sequential(
          (0): Linear(in_features=32, out_features=32, bias=True)
        )
      )
      (agg_b_from_a_neg): AttentionAggregator(
        (out_mlp_layer): Sequential(
          (0): Linear(in_features=32, out_features=32, bias=True)
        )
      )
      (agg_b_from_b_pos): AttentionAggregator(
        (out_mlp_layer): Sequential(
          (0): Linear(in_features=32, out_features=32, bias=True)
        )
      )
      (agg_b_from_b_neg): AttentionAggregator(
        (out_mlp_layer): Sequential(
          (0): Linear(in_features=32, out_features=32, bias=True)
        )
      )
      (update_func): Sequential(
        (0): Dropout(p=0.5, inplace=False)
        (1): Linear(in_features=160, out_features=64, bias=True)
        (2): PReLU(num_parameters=1)
        (3): Linear(in_features=64, out_features=32, bias=True)
      )
    )
  )
)
  0%|          | 0/2001 [00:00<?, ?it/s]  0%|          | 1/2001 [00:05<3:19:25,  5.98s/it]  0%|          | 2/2001 [00:11<3:02:42,  5.48s/it]  0%|          | 3/2001 [00:16<2:54:33,  5.24s/it]  0%|          | 4/2001 [00:20<2:48:54,  5.08s/it]  0%|          | 5/2001 [00:25<2:46:09,  4.99s/it]  0%|          | 6/2001 [00:30<2:44:45,
…
